…
/home/default/.local/lib/python3.9/site-packages/numpy/core/getlimits.py:542: UserWarning: Signature b'\x00\xd0\xcc\xcc\xcc\xcc\xcc\xcc\xfb\xbf\x00\x00\x00\x00\x00\x00' for <class 'numpy.longdouble'> does not match any known type: falling back to type probe function.
This warnings indicates broken support for the dtype!
  machar = _get_machar(dtype)
WARNING:absl:`lr` is deprecated in Keras optimizer, please use `learning_rate` or use the legacy optimizer, e.g.,tf.keras.optimizers.legacy.RMSprop.
Model: "sequential"
_________________________________________________________________
 Layer (type)                Output Shape              Param #
=================================================================
 conv2d (Conv2D)             (None, 30, 30, 32)        896

 max_pooling2d (MaxPooling2  (None, 15, 15, 32)        0
 D)

 conv2d_1 (Conv2D)           (None, 13, 13, 64)        18496

 max_pooling2d_1 (MaxPoolin  (None, 6, 6, 64)          0
 g2D)

 conv2d_2 (Conv2D)           (None, 4, 4, 128)         73856

 flatten (Flatten)           (None, 2048)              0

 dense (Dense)               (None, 256)               524544

 dropout (Dropout)           (None, 256)               0

 activity_regularization (A  (None, 256)               0
 ctivityRegularization)

 dense_1 (Dense)             (None, 10)                2570

=================================================================
Total params: 620362 (2.37 MB)
Trainable params: 620362 (2.37 MB)
Non-trainable params: 0 (0.00 Byte)
_________________________________________________________________
Epoch 1/15
1563/1563 [==============================] - 42s 27ms/step - loss: 1.7760 - accuracy: 0.4100 - val_loss: 1.3998 - val_accuracy: 0.5448
Epoch 2/15
1563/1563 [==============================] - 37s 23ms/step - loss: 1.3360 - accuracy: 0.5796 - val_loss: 1.2186 - val_accuracy: 0.6119
…
